RL-DeepQ/policy.pth (torch_old, 2555 bytes, 4 tensors)

linear1.weight f4 [16, 22]
00000000: 7471 da3e cd06 09be d98c a03e 7978 87bf
00000010: 8252 453e 0616 b73e 6a90 513e 03bf d1be
00000020: 0e5a efbe 2343 c63e 4899 74be 4734 053b
00000030: 9a95 a1bf 681c 69bf ae35 2ebf e082 02bf
00000040: 8e9d b0bf 55b8 753f 9dfd 1bbf dfe7 39bf
00000050: 256d 473f 9133 e43e 3267 81bd 8623 623f
00000060: befa ecbe 9f28 bdbe 5e2f 56bf a249 a7be
00000070: 91a6 643d 62a8 cabe aa1e 4dbe d762 36be
00000080: a4a3 913d 27fe f93e 3a44 7abe 6ac2 19bf
00000090: c27f 913e a52e 4abe d71a 3ebf 77e0 6abf
000000a0: cd4b 17bf 9d8d 743e 0e3d 9dbe bc6c 24be
000000b0: 872c 443f 1755 c7be d0ba ed3d 1267 e03e
000000c0: 6344 5bbd aca6 b83e 178b 82be 856b 15bf
000000d0: c373 0ebe 85f2 1ebf 0edb 113e 0699 10bd
000000e0: 6e74 233f 4048 d33e 6068 1ebf 4aaf 5ebf
000000f0: 5e4f 1b3f bfc3 073f 3001 89be 207d 06be
00000100: 80fb 693e 3a10 48bf 9001 a9bf 8283 41bf
00000110: 229d 9ebd d1d8 853f 4611 913e f438 7b3d
00000120: a7a9 423f 80b7 8abd e0ce 36be 0e1e 54bf
00000130: 6346 573d 4bd2 ba3e c547 cebe f1b3 b0be
00000140: b63c f03d aff1 d7be ed66 96be ae5e 6dbe
00000150: 894a 9e3d 7b73 94be 01a5 aabf a486 a9bd
00000160: b706 f93e b5ac e13e 055e b2be 2a04 27bd
00000170: 0ea5 7fbe e2b4 373e 9c29 a43e 2c59 f93e
00000180: 1743 88bf c77b 1dbf f9f3 a23e 9b1a 07be
00000190: 9a17 c0bf 6e6c b8bf 976b c7be 0341 2dbe
000001a0: 89ed 2d3f 43c9 8bbf b444 c1bf a457 cb3e
000001b0: 2880 d13e a6c8 c8be 5793 573f afaf 7b3f
000001c0: ba08 683f d9b5 a7bd 2566 5abc 6c01 debd
000001d0: c33a b0be f441 76bc fdaf df3e 317b ccbe
000001e0: bb78 80bf cac4 92be f2d1 cdbd 09b9 9bbf
000001f0: 71b5 353e 934d 19be 7bae eebc 3e78 11bf
00000200: 91cf 00bf 57fb 06bf 1dba 0bbd a88a 8d3f
00000210: 0a6f 7a3e 6f63 01bf 6cf7 8ebe ae37 c1bd
00000220: 09ab e6bd 2a8e adbd d60d aebe c6d0 37bf
00000230: cb79 223f 8c5d 3dbe c1c6 b2bf 4912 5c3e
00000240: 2629 63bf 8c6a b2bf 8640 aebf 22f4 d0bd
00000250: dd8d 833f 73f2 d23e c13e 6abf 388c bbbe
00000260: e7e7 d13e 8bc9 b43f 77b6 493f 6bce da3d
00000270: e0d4 84bf 2821 e1be 4f0f 8dbf fdba 45be
00000280: 8273 883e 19e2 ea3e bce9 4abf defb 173e
00000290: 96a7 4a3f e492 113e 9467 8dbf 95a2 70bf
000002a0: 03ca 813e 860e 68bd ad28 16bf b362 81bf
000002b0: 4488 9dbf deb0 013f fb0e 19bf 644a b5be
000002c0: 1415 9c3e a201 dbbe 6465 e23e 0273 42bf
000002d0: 11f8 84be 6f12 b4be 2735 27be b938 e6be
000002e0: c033 bd3d 1ee2 eebe b2fc f9be e59c cf3e
000002f0: 77d3 85bf 7c56 15c0 165a 50be e0d5 a8be
00000300: 1387 abbd fcee 6e3f c4f3 1cbf 3746 1a3f
00000310: bd36 493f b74c 24bf 6099 313d ec22 c93e
00000320: 9d44 ae3d 3fd6 643e cdb1 8b3f a506 bcbe
00000330: 71c0 ba3e 72af 373f ba66 253f 53e6 09bd
00000340: 81d9 25bb 4c2a ed3e 9acf 96be 8cb9 94be
00000350: 7ea4 413e 4069 8b39 ecc9 70bf 4da9 06bf
00000360: c527 ed3c 98ef a6bb f2f1 a3bf b9e9 0ebf
00000370: 54a8 2fbe 76bf 1ebe 8bf1 aa3d c42b 7ebd
00000380: 5a33 3dbd f0aa 57be 5ad7 d7bd e1d1 33be
00000390: 586c ae3d 40ba 92bb 34e2 22bd 8049 11bd
000003a0: cda5 2abe b0a7 773d 9f21 45be 46c0 7cbe
000003b0: aa53 dbbd c087 3d3b 3125 53be 2054 e33d
000003c0: 23a6 abbd 7088 24bd bf28 4fbe f101 8e3e
000003d0: 83fb 65be 8b52 6f3e 0bf5 113e f6ae 1bbf
000003e0: 56d2 983c 474b 123f 0816 91be 6fc2 713d
000003f0: 2a95 2a3f 48ca b5be 5515 a2bf 3833 98bf
0.42664683 -0.133815 0.31357458 -1.058364 0.19269755 0.3575899 0.20465246 -0.40966043
-0.46748394 0.38723096 -0.23886597 0.002032535 -1.262378 -0.9105897 -0.6805066 -0.5098095
-1.3798082 0.95984393 -0.6093386 -0.7261943 0.77900916 0.44570592 -0.06318511 0.88335454
-0.4628505 -0.36945054 -0.83666027 -0.32673365 0.055822913 -0.3958159 -0.20031229 -0.17811142
0.0711129 0.48826715 -0.24440089 -0.6006228 0.28417784 -0.19744356 -0.74259704 -0.91748756
-0.5910004 0.23882146 -0.30710644 -0.16057104 0.76630443 -0.38932106 0.11607897 0.43828636
-0.053532016 0.3606466 -0.25496742 -0.58367187 -0.13911347 -0.62088805 0.14243719 -0.035302185
0.6384953 0.4126606 -0.61878014 -0.8698622 0.6066798 0.5303306 -0.26758718 -0.13133669
0.22849846 -0.7814976 -1.3203602 -0.7559129 -0.077448145 1.0456792 0.2833349 0.06133361
0.7604012 -0.06773281 -0.17852354 -0.8285836 0.05255736 0.36488566 -0.4028913 -0.34512284
0.1173033 -0.42176577 -0.293754 -0.23180649 0.0772906 -0.28994355 -1.3331605 -0.08277634
0.48637936 0.44077078 -0.34837356 -0.040775456 -0.24965307 0.17940095 0.32062995 0.48700845
-1.0645474 -0.61516994 0.3182676 -0.13193743 -1.5007203 -1.440809 -0.38949272 -0.16919331
0.67940575 -1.0920795 -1.5099092 0.39715302 0.40918088 -0.39215583 0.842092 0.98314947
0.90638316 -0.081889816 -0.013330017 -0.10840115 -0.34419832 -0.015030373 0.43688956 -0.39937738
-1.0036844 -0.28665763 -0.100498095 -1.2165843 0.17744996 -0.14970998 -0.029135933 -0.568241
-0.5031672 -0.52727264 -0.03411304 1.105794 0.2445642 -0.5054235 -0.27923143 -0.09434448
-0.11263091 -0.08474381 -0.3399493 -0.7180294 0.6346709 -0.18492717 -1.3966905 0.2149135
-0.8873466 -1.3938766 -1.3613441 -0.10202815 1.0277668 0.412006 -0.91502005 -0.36630416
0.4099724 1.4124006 0.78794044 0.10683902 -1.0377464 -0.4397061 -1.1020297 -0.19309612
0.26650625 0.45875624 -0.792629 0.14842173 0.79161966 0.1421619 -1.1047235 -0.9399808
0.25349435 -0.056654476 -0.58655816 -1.0108246 -1.230721 0.506605 -0.59788483 -0.35408318
0.3048483 -0.42774683 0.4421798 -0.7595674 -0.2597051 -0.35170314 -0.1632887 -0.4496515
0.09238386 -0.4665689 -0.48825604 0.4054939 -1.0455159 -2.3334036 -0.20346865 -0.32975674
-0.08375373 0.9333341 -0.61309457 0.6026339 0.7859915 -0.6417956 0.04335916 0.39284456
0.08509181 0.22347353 1.0913635 -0.3672382 0.36474946 0.71752083 0.64609873 -0.03366692
-0.0025306644 0.46321332 -0.29455262 -0.2904781 0.18910405 0.00026590563 -0.9405811 -0.5260208
0.028949628 -0.00509448 -1.2808211 -0.5582538 -0.17154056 -0.15502724 0.08346852 -0.062053457
-0.04619155 -0.21061301 -0.10539122 -0.17560531 0.08516759 -0.004477769 -0.039766505 -0.035470486
-0.1666481 0.060462654 -0.19251107 -0.24682721 -0.10709317 0.0028920025 -0.20619656 0.1110003
-0.083812974 -0.04016918 -0.20230387 0.27735856 -0.22459225 0.23371331 0.14253633 -0.60813844
0.018654983 0.57146114 -0.2833712 0.059023317 0.66633856 -0.3550589 -1.266276 -1.1890631

linear1.bias f4 [16]
00000000: cf85 363e e038 b8be 8302 bebd a9d0 38be
00000010: 7e16 b4be c88e aebe 556c 013f 5aea bcbe
00000020: 917f 163f d350 31be bbff 91be be27 92be
00000030: f0d3 483d 06e5 1e3e 0ef5 793d 68aa d43e
0.17824481 -0.35980892 -0.09277823 -0.18048348 -0.3517341 -0.34093308 0.50555927 -0.36897546
0.587884 -0.17315988 -0.2851542 -0.28545946 0.049030244 0.15517053 0.061024718 0.4153626

linear2.weight f4 [4, 16]
00000000: 28df 743e 3b48 d33e a3e4 803e 2eec 9e3c
00000010: 22ff 36bf 2ff0 053f 47a4 09c0 f87b bcbf
00000020: db62 3ebf fa2d 1f3e d2a9 09bd e1b5 7fbf
00000030: 1307 3bbe e7cf d83e 2261 88bf 7ba1 44c0
00000040: a272 cdbf b878 b13e ac71 4ebf 08b5 68bf
00000050: d591 a33f b0e8 aa3e f89c 903f 4151 823f
00000060: 6cc2 153e 4188 30bf 6b56 423e eefe 59bf
00000070: 9fe3 cabf cfb3 6a3f a554 9f3f ed52 803c
00000080: ae3c a73f 5983 a0bf 47bf 2bbe de9e f93e
00000090: 0cdb a7bf c276 8dbf 7e53 2a3e 0211 c33d
000000a0: 433b 563f e4f1 9b3e 80a4 4f3a 00f7 903f
000000b0: 60da bb3f 2823 97bf 8ae3 33bf cc78 683f
000000c0: 2187 72bf 1f17 5abe 7cfa e03e bcee cc3e
000000d0: d3ab bd3e 7858 153f 2c36 3ec0 b82d 0bc0
000000e0: 1ed8 44c0 6f55 f23e b2a6 ad3d 0fe1 433e
000000f0: e11d cdbf 3de8 37bf 3881 05c0 5a80 fbbf
0.23913252 0.41266045 0.25174436 0.019399729 -0.7148305 0.52319616 -2.1506517 -1.4725332
-0.7436959 0.15544882 -0.03360922 -0.998869 -0.18264417 0.42346117 -1.0654643 -3.072356
-1.6050608 0.34662414 -0.806422 -0.9090123 1.277888 0.3338065 1.1297903 1.0181047
0.14624947 -0.68957907 0.18978278 -0.85154617 -1.5850714 0.91680616 1.2447706 0.015664542
1.3065393 -1.2540084 -0.16772185 0.4875402 -1.3113723 -1.1051867 0.16633412 0.09524728
0.83684176 0.30457985 0.0007920936 1.1325378 1.4676018 -1.1807604 -0.7026907 0.9080932
-0.9473744 -0.21297882 0.43941104 0.4002589 0.37045154 0.5833812 -2.9720564 -2.1746655
-3.0756907 0.47330806 0.0847906 0.19128822 -1.6024743 -0.7183874 -2.086012 -1.9648545

linear2.bias f4 [4]
00000000: 63e0 873d 1fed 2b3e 64e7 5dbe 8dd4 90be
0.06634595 0.16789673 -0.216703 -0.28287163
